classifier/cnn.model (torch_old, 436606 bytes, 8 tensors)

weight f4 [10, 1, 4, 4]
00000000: bbc8 0b3e 7de7 c6bd 6abb a6bd c51b 543c
00000010: 8f38 243c aacc 59be 667e dcbd a2de e03d
00000020: 245e f93d 5f31 073a 822e 26be 3424 1cbe
00000030: 1fd2 013e 5d88 773d a246 e2bd 886d 313e
00000040: 3f4d 2fbe f681 083e 7432 d4bd 275d 0f3d
00000050: 1ad3 163e c88e 493e 5cfe 65be 81de 3bbe
00000060: cf98 2f3e a125 01be f7df 6dbe bb25 10be
00000070: a1aa 4b3e aec8 d5bd 4131 0bbe e91d 39be
00000080: c935 f5bd 9289 023e 19c5 48bd be20 b4bb
00000090: ae0b 92bd 6fab 9f3d d6f3 81bd 738a 763d
000000a0: c32a 313d 6cd3 813d 9d4c 823e c35e 193e
000000b0: ca4e 47be f509 1cbd 1b0c 19bd 881e 973d
000000c0: 2a2f 703c 22be 4b3e bd80 283e 36dc 823e
000000d0: b280 6e3e df1c bd3d 9928 053c c4ae 853e
000000e0: e1d7 14be b5d6 a93d 0abb d2bd fd84 52bd
000000f0: 2825 94bd 0d95 cc3d 01c4 9f3d 56ac 123e
00000100: 6457 413e 509a 813e 8b5c 46be 0272 23be
00000110: 820d eabd 5977 01be 041b 643e f026 65bd
00000120: 5dcf 733e de1f 97bd da29 c53c 74f2 a53c
00000130: 9f01 23bd b7e1 cdbc d9e6 033e f7b0 293e
00000140: 37b9 34be 6694 2ebe 5e19 44ba 6457 2d3c
00000150: 1f6f 623e 43ba fc3d 058b 4f3e d3c7 ce3c
00000160: b590 7a3e 96a9 ae3b 4fa2 a13d 9a6b 6e3e
00000170: 6dea c03b 4172 8c3e 3bd2 653d 73b6 e6bc
00000180: 58b5 6fbe 6843 ca3d a885 3c3d 2041 943c
00000190: 001a 5d3c 52c3 64be a643 45be e0c6 87bd
000001a0: a8dd 8cbd e0ef c33c 8a4d 6fbe 56a8 38be
000001b0: 1ca9 8c3d 4889 653d c06f 10bd 6092 16bc
000001c0: 114b 493e 1af4 a93e 083d cdbd 4b0c b13e
000001d0: fd61 a03e 41c7 043e 14db 4d3e d0bb da3d
000001e0: a28b f33d bfb6 263e c2f9 f93d a241 833e
000001f0: 3af2 fa3d 4443 203e baaf 993e a497 a43d
00000200: 2b3d 713e c42f 853d 6231 e0bd 87e3 f63d
00000210: 1af6 6bbe 8e30 2ebe 5bdf 03be c8d9 273e
00000220: f6eb b2bc 0735 f53d cbe1 ecbd 1933 3b3d
00000230: 377c f3bd 0866 523d 7651 463e 6b7e 933c
00000240: c702 033e 4c5f f93d 1bc6 263e 7e7a d3bc
00000250: f5fc 5f3e 15fd 12be 09b9 d2bd 070f 4abb
00000260: 3912 fdbc ca96 6e3e 2de9 90bd 7f5e bebc
00000270: f6c5 ed3d f8b5 553e 7dfc 473d 904a 7abc
0.13650791 -0.09712122 -0.08141215 0.012946074 0.01002325 -0.2126948 -0.10766296 0.10979964
0.12176159 0.0005157198 -0.16228679 -0.15248185 0.12677811 0.06043278 -0.110486284 0.17326939
-0.17119311 0.13330826 -0.10361186 0.035000946 0.14728966 0.19683373 -0.22460312 -0.18346597
0.17148136 -0.1261201 -0.23229967 -0.14076893 0.19889309 -0.10438667 -0.13593008 -0.18077816
-0.11973149 0.12747791 -0.049016092 -0.0054970672 -0.07131134 0.0779637 -0.06345336 0.06019063
0.04325367 0.06339154 0.25449076 0.14977555 -0.1946365 -0.038095433 -0.03736506 0.0737887
0.014659682 0.19896749 0.1645536 0.25558633 0.23291281 0.09234022 0.008127355 0.26109898
-0.14535476 0.08292905 -0.10289581 -0.05139636 -0.072336495 0.09989367 0.07801057 0.14323553
0.18880993 0.25313044 -0.1937124 -0.1596146 -0.11428358 -0.12643184 0.2227593 -0.055945337
0.23809572 -0.07379125 0.024067808 0.020257212 -0.039796468 -0.025132043 0.1288103 0.16571413
-0.17648779 -0.17048797 -0.00074805866 0.010579918 0.22112702 0.12340214 0.20267875 0.025241768
0.24469264 0.005330275 0.07892286 0.23283234 0.0058873207 0.2743092 0.056108695 -0.02816317
-0.23409021 0.09876138 0.046025902 0.01809746 0.013494968 -0.22340134 -0.19264087 -0.06629729
-0.06878215 0.023918092 -0.23369423 -0.18032965 0.068681926 0.056039125 -0.035262823 -0.009190172
0.19657542 0.33194047 -0.100214064 0.3457969 0.3132476 0.12966634 0.20103103 0.10680354
0.11891867 0.1628065 0.12205841 0.2563601 0.12253232 0.1565066 0.3001688 0.08036736
0.2355849 0.06503251 -0.10946919 0.12055116 -0.23043099 -0.1701071 -0.12878172 0.1639167
-0.02184103 0.11973005 -0.11566504 0.045703027 -0.118889265 0.051366836 0.19367012 0.018004617
0.12794028 0.121763796 0.16286509 -0.025815245 0.21873839 -0.14354356 -0.10289199 -0.003083171
-0.030892478 0.23299709 -0.07075725 -0.023238419 0.11610024 0.20870197 0.048824776 -0.015276566

bias f4 [10]
00000000: 40cd 54be e344 a9bc 88d8 043e 47f9 cb3d
00000010: 00a0 1a3d 4190 b9bd f0a3 b7bd 8fb9 c23c
00000020: d845 343e 692d d6bd
-0.20781422 -0.02066273 0.12973225 0.09959655 0.037750244 -0.090607174 -0.089668155 0.023770122
0.17604768 -0.1045788

weight f4 [20, 10, 4, 4]
00000000: b0de 81bc 98cf 9ebd 18e3 853c 4adb 1b3d
00000010: b8f7 2e3c c2a6 e2bc f929 8bbd 8eac 2e3c
00000020: b6e5 81bd 66b1 f0bc 547e 243d 97f1 68bd
00000030: bda7 203d e050 293c 80f7 7b3a a5c7 57bd
00000040: 7483 603d 346c 653d 0347 7dbc c895 57bd
00000050: 6af8 8ebc 8855 393d 8497 6cbd bd8a bd3b
00000060: 415b 50bd 0585 3abd 9e54 2c3d 13d7 a9bc
00000070: 24c4 653d e71a a13c 121f 88bc b387 bcbc
00000080: 9083 9f3b 6326 11bd d2d6 363d 014b 1fbd
00000090: 0910 d3bb 406c 5a3d 990d 4a3d ef07 973d
000000a0: 86c0 a03c 1fe4 48bd 5dd4 903d aa19 86bd
000000b0: b16d 7d3d ec0f 1b3b 2415 f0bb 90bd 7a3c
000000c0: 203a 8fbc e938 3d3c db28 6c3c c2c6 4cbd
000000d0: 22e5 383b 6f82 92bd f06a 323d a4fc ae3c
000000e0: c35c dc3c 47f2 efbc d1fa 5b3d beb0 08bd
000000f0: 0fee 85bd 8ebc 143d d253 42bc 440b 9c3d
00000100: cd4c a13d 4775 9ebd 6d31 533d 6a8d 883c
00000110: c628 583b ff70 453d 47ea b5bc e58f 95bd
00000120: 89bb 8c3d e790 093c 3fb6 2f3d e5d8 c13b
00000130: 8734 133d 91b2 933d e5a5 8cbd c5fe 253d
00000140: 1c5f 98bd 98b0 0b3d a4bd 5e3c 247c 2fbd
00000150: 5499 8bbd 55b5 03bb e40d 90bd d5b6 b0bc
00000160: 7fc3 033d 6ebc 0e3d 368d 07bd ff66 4fbd
00000170: 8325 06bb 258b 21bd bbc8 26bc 4f2c 583d
00000180: 8896 113c 1c57 d03c 8802 43bd 87f1 8d3d
00000190: 1860 3abc 6327 0abd 46c5 243d 818b 76bd
000001a0: fa99 2dbd 80ea 9fba 3d86 98bd 08b8 03bc
000001b0: 283d db3c 3071 c1bb 24fa 2b3d e388 98bd
000001c0: f99a 85bd e615 27bd 626d 6d3d c32e 10bd
000001d0: 6d73 493c 38fa fd3c 4e39 68bd c791 c13b
000001e0: d37e 943c 0e3a 7ebd 3967 943c b4e0 a43d
000001f0: 1f65 94bd 3ec9 3fbd c460 7b3d b57c 813c
00000200: b7c7 0dbd b216 023c dc95 063d e5dc 84bd
00000210: 40aa 9fbd d288 2f3d aa84 873d 06ac 083c
00000220: 8bf2 42bd 984a 90bd 3bb3 bbbc c8df 983c
00000230: f434 1fbd fcd5 39bd bc22 8bbd 4f0e 10bd
00000240: de3b 7e3d 2e28 b13b b377 5f3d 1471 8dbd
00000250: edf3 9ebd e496 213d 8f7f 5e3b 98ff 853d
00000260: 10b2 243c dfa6 99bc 04e7 97bd 2175 9a3d
00000270: 6af4 0b3d fb6b 8abb 7465 6d3d 1a46 9bbd
00000280: a25e 83bd adbf 163d bd93 b2bc 2cdb 54bc
00000290: b799 9e3a f2ec 953d c872 6fbd 4f90 d03c
000002a0: 3348 263c 1873 4b3d 0870 2d3d 4dc9 97bd
000002b0: 2ada e63c 1af0 763d 0025 90bd b60f 743d
000002c0: 9536 73bd 7950 1cbd c0ad 663d 164c 9ebc
000002d0: b92a dc3c 81ae 213d d3f4 0e3d 6a8d 61bd
000002e0: 55b8 53bc 1567 803b d9e0 8cbc be62 9cbd
000002f0: 0a3e 17bd c3c0 813c 26fb 4d3d 7e2a d73b
00000300: bb09 8ebc dbe8 853c aa8e 75bb 141d 21bc
00000310: 462c 8fbb 80b9 2fbc e28d 9dbd c0e9 b8bc
00000320: f16c 32bd 6350 f0bc afdc f73c b4f9 fabc
00000330: 4a83 703c f9ec 043d 8c0e b1bc 344a 1cbb
00000340: aec8 643d 73cf 74bc c034 353d 808e 2bbd
00000350: e2da 893d 5540 743d 0391 82bd 0f3d 813d
00000360: 613f 913d ec62 a23d 6c71 f8bc 5f88 a43d
00000370: ec52 a0bc 419d 09bd 29d4 913d d30c 29bb
00000380: edfd 373d 2702 2c3d b07f 1d3d 5ff1 433d
00000390: d5ad 383d c996 9d3c d36a a73c aa01 3dbd
000003a0: edbd cfbc f14d f8bc c0de 5cbb 943f 593d
000003b0: e734 2bbd d94d 773d a2d6 833d d60a 013b
000003c0: d9f7 65bd d38f b13c 6347 62bd 690d 0d3d
000003d0: 6203 383d 30d9 3b3c e4a7 9f3d 673a 8cbc
000003e0: d0f5 6ebc 232d 143d 1cc3 02bd fbd5 fb3c
000003f0: 410f 823d a1bb ca3b 686e a43d 3259 5a3d
-0.015853256 -0.07754439 0.016343638 0.038050927 0.010679178 -0.027667407 -0.06795115 0.010661257
-0.06342642 -0.029381465 0.04015954 -0.056871023 0.039222468 0.0103342235 0.00096117705 -0.05268063
0.054812863 0.056011394 -0.015458825 -0.052633077 -0.017452437 0.045247585 -0.057761684 0.005784361
-0.050868277 -0.045537014 0.042072885 -0.020732438 0.056095257 0.019666148 -0.016616378 -0.023013925
0.0048679784 -0.035437 0.044638462 -0.03888989 -0.0064411205 0.05332589 0.049329374 0.0737456
0.019623052 -0.04904568 0.07071755 -0.06547864 0.061872188 0.0023660613 -0.007326739 0.015303984
-0.01748377 0.011549213 0.014414038 -0.049994238 0.0028212746 -0.071537845 0.043559015 0.021360703
0.026899701 -0.029290332 0.053705994 -0.03337168 -0.06539547 0.036312632 -0.011860805 0.07619336
0.07875977 -0.07737213 0.051560808 0.016668994 0.0032983287 0.048203465 -0.022206439 -0.07302836
0.06871707 0.008396364 0.042898413 0.0059157484 0.035938766 0.07211793 -0.06867579 0.04052617
-0.07440016 0.03410396 0.013595019 -0.042843 -0.068163544 -0.0020097096 -0.070338994 -0.021571556
0.03216886 0.03484767 -0.033093654 -0.050635334 -0.0020469136 -0.03943934 -0.010179694 0.05277663
0.008885987 0.025432162 -0.047609836 0.06930833 -0.01137545 -0.03372897 0.040227197 -0.060191635
-0.04238317 -0.0012200624 -0.07447479 -0.008039482 0.02676256 -0.0059033856 0.0419866 -0.07447984
-0.06523699 -0.04079237 0.057965644 -0.035200845 0.012295586 0.031003103 -0.056695275 0.0059072706
0.01812688 -0.062067084 0.018115627 0.08050671 -0.0724585 -0.04682278 0.06137158 0.015806535
-0.03461429 0.007939981 0.03285776 -0.06487445 -0.077961445 0.04285509 0.066171005 0.008341795
-0.04759459 -0.07045478 -0.022912612 0.018661395 -0.03886886 -0.045370087 -0.067937344 -0.035169896
0.062068813 0.005406401 0.054557513 -0.069063336 -0.07761369 0.03945054 0.0033950543 0.06542891
0.010052219 -0.018756328 -0.074171096 0.07541872 0.03416864 -0.004224298 0.05795808 -0.0758173
-0.06414534 0.03680389 -0.021798963 -0.012991708 0.0012100254 0.07320584 -0.058459073 0.025459437
0.01014905 0.04967031 0.04234317 -0.07411442 0.0281802 0.060287572 -0.07038307 0.059585296
-0.059378225 -0.038162682 0.056318045 -0.01932339 0.02687584 0.03947306 0.03490145 -0.055066504
-0.012922366 0.0039185383 -0.01719706 -0.07636021 -0.0369244 0.015838986 0.050288342 0.0065663448
-0.017338624 0.016346386 -0.0037469068 -0.009833593 -0.0043692915 -0.010725379 -0.076930776 -0.022572398
-0.043560926 -0.029335206 0.030256597 -0.030636646 0.014679739 0.032452557 -0.021613382 -0.002384794
0.055855446 -0.014942038 0.04423976 -0.041883945 0.06731202 0.059631664 -0.06375315 0.06310474
0.07092167 0.07929024 -0.030327521 0.08033823 -0.01957079 -0.033597235 0.071205445 -0.0025794997
0.044919897 0.04199424 0.03845185 0.04783761 0.045087654 0.019236939 0.02043668 -0.046144165
-0.025359118 -0.030310603 -0.0033702105 0.05303915 -0.0417985 0.060376976 0.06437422 0.0019690297
-0.05614457 0.021675026 -0.05524386 0.034436617 0.0449251 0.011465356 0.077956945 -0.017117692
-0.014584973 0.03617586 -0.031924352 0.030741682 0.06350566 0.006186918 0.08028871 0.05330772

bias f4 [20]
00000000: 9b41 943c ca22 bb3c bf9e 9bbd cf58 cbbc
00000010: 3312 22bd ac87 d5bc d75f adbd 8aef fb3c
00000020: 9964 e43c 61f7 69bd d67c bb3c f1a6 013d
00000030: b24d 0e3d 8eec 4cbd a9bb f7bc 4f03 89bc
00000040: bc37 b53c 8427 53bc 4bd8 7b3d e98b 203d
0.01809769 0.022843737 -0.07598638 -0.02482262 -0.039568137 -0.02606567 -0.084655456 0.03075387
0.02788 -0.057120685 0.022886675 0.03165335 0.034742065 -0.050030284 -0.03024085 -0.01672521
0.022121303 -0.012887839 0.06148557 0.03919593

weight f4 [50, 2000]
00000000: b68a ae3b 50fe a43a 40e4 8f3b bd1f a43c
00000010: a486 76bc 68d4 443b 1cd3 1bbc 3c67 0ebc
00000020: 7d96 9f3c bf75 e93b c416 813b f901 92bc
00000030: 7283 263c 2713 403c d5f8 983c 7496 b0bb
00000040: 0f7d 25bc e087 b8ba 242f 833a a1b9 2dbc
00000050: 373d 1e3c d727 453c 02d4 9e3c 9bec c7bb
00000060: a0aa 9cbc b7dc 57bc 4637 623c d1e8 4fbc
00000070: c8a8 65bc 9935 2a3c 4739 b3ba 400b 963c
00000080: 54f7 eb3b 377c 3d3c 4776 70bc 0037 ae39
00000090: 8b82 09bc f862 273b 8eb4 12bc 11ac 463c
000000a0: 2cb4 8a3c 39c1 2fbc bf16 a73c 397b f0bb
000000b0: 727a 90bb 89e4 a9bc 50f7 dfbb b868 93bc
000000c0: 0ab7 2bbc 8a75 9a3c 6cf5 043a 519a df3b
000000d0: e9d0 d9bb 2a32 ca3b a80f 36bb 90a1 dc3b
000000e0: 85fd 35bc 15b1 8e3c 19ef 3abc ae41 993c
000000f0: 41e8 2c3b 7701 f1bb e063 2cba 6cb6 eb3b
00000100: 09ed 933c e86e c1bb ace5 d1bb 64a6 fa3b
00000110: 8c12 2a3c 2092 153a 4dee 71bc b1cc 843b
00000120: 2a24 3e3c 9c0f d03b b435 81bb c896 87bc
00000130: 8000 9739 ea72 a73c 7f33 b4bc b3df 37bc
00000140: 1081 263c 0855 27bb 0611 123c 5a04 4f3c
00000150: ccaa ad3b fc9e 9f3b e817 8f3c ccce 9c3c
00000160: 685b 82ba d74d fcbb 2041 e1ba eedf 72bc
00000170: 0058 8ab9 c810 7dbc c4fc b13b c330 a9bb
00000180: f949 a8bc 725a 86bc 9a1b 363c 42fa 6a3c
00000190: fea9 b23b bad7 f0bb 26d2 5eba 5831 563c
000001a0: 38ca 823c 9fb7 543c 4ab8 33bc 4faf 90bb
000001b0: 4de4 93bc 7a62 5cbc 9d9c 3d3c be46 6abc
000001c0: e96a d5bb 01e5 13bc bf37 fa3b 1ba3 d83c
000001d0: 7319 623c a23b 793c 8062 c83c 8f7f 68bc
000001e0: bf76 c93a e2c6 413c b218 c73c c511 2f3c
000001f0: 7118 813c e332 dfbb e580 c5b9 f3c1 a23c
00000200: ea2a 8d3c d12e bf3c 4ec1 b53b 0e89 15bc
00000210: 494f 6a3c 9ddc 153c 5cad aa3c 8cc1 d53c
00000220: a515 063b 0f36 d13b 999a a03c 4487 64bc
00000230: 083e bb3c 88c6 f43b 7af4 9a3c 3b33 4fbc
00000240: 05d9 8a3c 94af 1f3c b5d7 a03c 65b9 1e3c
00000250: 17ef 663c 9ae9 d93c f56e 083c 043a ebbb
00000260: 5760 c63c 63ca e7bb 7022 59ba c2b6 503c
00000270: cd1e 643c e551 69bc af9f d0bb a436 073c
00000280: 7849 803c 4ccd 563c e6f6 d13a e273 e53b
00000290: b1d6 263b 15e9 ab3b 7bc3 c23c 475d e43c
000002a0: 8676 8abc 5661 93bc 3e8e 09bc 6ee3 9b3a
000002b0: 941d 493c 382e 93bb 2304 a23c a235 4cbb
000002c0: cd98 77bc 3428 85bc 8f8f 72bc 77ce 27bc
000002d0: 6276 9f3c 4d5b 16bc 0dc4 853a 6b8a a43c
000002e0: b704 b3bb 9945 983c 43c6 673c c04c 14ba
000002f0: c23f b13c 38b8 553c 5c28 79bc 03e5 5dbb
00000300: 4e3d 1e3b 8650 993c 8c0c 993c 3115 983c
00000310: 29df c83c bf29 ae3c 20f8 753c fac1 113c
00000320: 8162 a2bc 7d30 ad3c 18e5 d4bb d0be 9abb
00000330: d117 9e3c 7a22 593c f847 813b a0f6 9fba
00000340: 5007 c33a 1f4f 62bc 555f a03b d6a9 793c
00000350: 6aaa a1bb 1d8a 1c3c 0636 913b c594 913c
00000360: f320 07bc 163d b13c 9ef0 aabc 1864 adbc
00000370: 3b03 663c 2f76 173c fd93 493b 654f 693c
00000380: 2ed3 4a3c 891b d8bb 2575 55bc 5975 9f3c
00000390: 80cd 8bbc c033 1ebc 553d 9cbb d722 b53c
000003a0: 75fc 603c 9ec2 39bc 94fb 243c 6042 65bb
000003b0: aff2 b5bc f47f 9cba 9223 433c 040d b73a
000003c0: 82d8 af3c 158e 1fbb 58fd 803c 4e4f 9d3c
000003d0: 53c3 ddba e435 1dbc 1790 933a 20b3 62ba
000003e0: 49a5 5e3c fc43 99bb 1e24 913c 11b4 b43c
000003f0: 6e84 44bc a089 363c 436c 5b3c 786d 98bc
0.005326594 0.0012587998 0.004391223 0.020034665 -0.015046749 0.003003383 -0.009510782 -0.008691605
0.019480938 0.007124632 0.0039394815 -0.017823206 0.010163175 0.011723316 0.01867334 -0.005389029
-0.010100617 -0.001407858 0.0010008556 -0.010603339 0.009658149 0.012033424 0.019388203 -0.0061012036
-0.01912433 -0.013175181 0.0138071235 -0.012689785 -0.014017291 0.010388755 -0.0013673686 0.018315911
0.0072011147 0.01156526 -0.014676637 0.00033228844 -0.00839294 0.0025541168 -0.00895418 0.012125985
0.016931616 -0.01072722 0.020396588 -0.007338908 -0.004409128 -0.020738857 -0.006834902 -0.01799427
-0.010480652 0.018854875 0.0005071971 0.006823816 -0.0066472185 0.006170531 -0.0027780328 0.006733127
-0.011107807 0.017418424 -0.011409544 0.018708076 0.0026383551 -0.007354911 -0.0006576162 0.0071933772
0.018057363 -0.0059031136 -0.006405553 0.00764923 0.0103803985 0.0005705673 -0.014766288 0.0040527214
0.011605302 0.006349517 -0.0039431695 -0.01655139 0.00028801337 0.020440537 -0.021997212 -0.011222768
0.010162607 -0.002553286 0.0089151915 0.012635315 0.0052999016 0.0048712473 0.017467454 0.019141577
-0.0009945454 -0.007699709 -0.0017185546 -0.014823897 -0.00026386976 -0.0154458955 0.0054317433 -0.0051632836
-0.020543085 -0.01640055 0.011114979 0.014341893 0.0054523936 -0.0073499354 -0.00084999425 0.013073288
0.015965566 0.012983232 -0.010969231 -0.0044154297 -0.018053198 -0.013451213 0.011572984 -0.014299093
-0.006512989 -0.009026767 0.00763604 0.026444962 0.013800013 0.0152119715 0.024461031 -0.014190569
0.0015370472 0.0118272025 0.024303768 0.010685389 0.015758725 -0.006811486 -0.00037670802 0.019867873
0.017232377 0.023337753 0.0055467254 -0.009126915 0.01430113 0.009146837 0.020834617 0.026093267
0.0020459678 0.006384618 0.019604968 -0.013948265 0.022856727 0.007469956 0.018915404 -0.012646492
0.016949186 0.009746451 0.019634107 0.009687756 0.014095089 0.026600648 0.0083272355 -0.007178547
0.02421586 -0.007073687 -0.00082830247 0.012738885 0.013923359 -0.014240717 -0.006366692 0.008252773
0.015660033 0.01311047 0.0016019016 0.0070023397 0.0025457556 0.0052462914 0.023774853 0.02787651
-0.01690222 -0.01799075 -0.00839573 0.0011893341 0.012275118 -0.0044915937 0.019777363 -0.0031159897
-0.015112114 -0.016254522 -0.014804735 -0.010242096 0.019465629 -0.009177041 0.0010205522 0.020085534
-0.0054632085 0.018587874 0.01414639 -0.00056571886 0.021636847 0.013044409 -0.015207376 -0.0033858425
0.0024145427 0.018715154 0.01868274 0.018564792 0.024520474 0.02126014 0.015012771 0.008896345
-0.019822361 0.021141285 -0.0064970367 -0.0047224537 0.019298466 0.013252849 0.003945347 -0.0012204237
0.0014879499 -0.013812809 0.004894177 0.015238246 -0.004933645 0.009554413 0.004431489 0.017771134
-0.008247602 0.021635573 -0.020866688 -0.021165892 0.014038856 0.009244486 0.0030758374 0.014240121
0.012379451 -0.0065950793 -0.013028418 0.019465135 -0.017065763 -0.009655893 -0.0047680535 0.02211134
0.013732065 -0.011337904 0.0100697465 -0.003498219 -0.022210447 -0.0011939988 0.011910336 0.0013965671
0.021465544 -0.0024346162 0.015745804 0.019202854 -0.0016919173 -0.009595368 0.0011258152 -0.00086479075
0.013589212 -0.004677294 0.017717417 0.022058519 -0.011994464 0.011141211 0.013392511 -0.018606886

bias f4 [50]
00000000: f777 2a3d 2e64 8b3c 336b 64bb 39b8 b3bc
00000010: 1b1b f63c c18f 06bc 0de6 363c 8dbe 453c
00000020: 0d9c 45bc da6f 773b 4ef6 d83b 41d9 6c3c
00000030: 519e 36bc 3864 eb3c bb77 563c f3eb 16bc
00000040: 2204 853c 8d77 e1bc b017 14bc 4a1b b5bb
00000050: 5b49 86bc 6ac3 a4bc 2679 a83b 5a8e a63a
00000060: 2c18 27bc bc0e 5e3c b522 bc3c f306 cd3b
00000070: f6b3 9e3b d002 43bc ca1d b73c f065 3c3c
00000080: d437 08bc bed1 1cbc 19c6 99bc ad11 d7ba
00000090: bd28 d23b 74ab c93b 8d23 383b 6224 7e3c
000000a0: 7c59 4dba 7dcb 0d3d b7e4 e53a 8b79 abbb
000000b0: 485c dc3c f1f1 b63b 2aaa 853c c5cf 78bc
000000c0: 8b96 083b cb1c 603b
0.041618314 0.017015543 -0.0034853935 -0.02193843 0.030042222 -0.008212985 0.011163247 0.012069357
-0.012061131 0.0037755878 0.0066211587 0.014456094 -0.011146144 0.028734311 0.013090069 -0.009211528
0.016237322 -0.027522827 -0.009038851 -0.0055269348 -0.0163924 -0.020112712 0.005141395 0.0012707219
-0.010198634 0.013553318 0.022965768 0.006256932 0.0048432304 -0.011902526 0.022353072 0.011498913
-0.008314092 -0.009571491 -0.018771218 -0.0016408466 0.006413548 0.006154472 0.0028097362 0.015511604
-0.00078334636 0.03461789 0.0017539476 -0.005232995 0.026899472 0.005583041 0.016316492 -0.015186255
0.0020841684 0.003419685

weight f4 [40, 50]
00000000: d5b6 873e b6b5 94bd 1793 afbd fc38 063e
00000010: 0e86 843e c793 14bd 50d9 c3bc 4465 1bbd
00000020: 3b9c 6b3e fbc7 643e 30c3 ec3d 04d4 8f3d
00000030: 76ac b1bd 4508 443e 98d2 523e bfb2 04be
00000040: c739 6b3e 79e5 d4bd 0452 04bd bdfb 1e3e
00000050: aae6 a0bd 565d ce3d ca4e 7bbb 6dd6 a73d
00000060: dea8 0bbe 81c7 9a3e 7420 9e3e 55c1 7c3e
00000070: 711d f8bc 5abd fc3d c2cb 6d3e 23f8 033d
00000080: 8997 063e a0a6 ebbd 2d4b 1b3e 2961 a4bd
00000090: 341d 673e 3092 593e 64e8 9b3d 5cf3 0abe
000000a0: fd5e b93b 5f99 733e 3839 98bd cbd1 8b3e
000000b0: e3f1 403e d295 0e3e 16c7 adbd af51 fe3d
000000c0: 13bc d2bd d4bd e5bc b826 993e f44f 453e
000000d0: 1e76 993e daa3 bfbd 3c7f 90bd 68ac 11bc
000000e0: 4a9c 94bd 4a2d 113e b36d 65bd 5ce2 713e
000000f0: 8639 93bd 74ca e9bd 5909 bd3d f9ec 673e
00000100: e191 f7bd 7718 8b3d d8c4 0abe eb82 2cbd
00000110: 9ba4 983b b85c 353e 6f0e 9abd 500f b4bc
00000120: 2755 a93d 456b ec3d 2e92 df3d fc3e 9d3e
00000130: b4d5 993e 3aa1 913e e308 cebd 22eb 2dbc
00000140: dd1a 753e f9dc 75bc 2abd 113e f7a3 43bd
00000150: 0ef5 24be 4cf4 a53d c32a 4d3e eb72 e0bd
00000160: 1735 b4bd 7529 47bc e32b c03d 45a2 753e
00000170: 869b 85bd 466b 0fbd 9810 843e cdd6 03be
00000180: 0668 01be ffcd 733d aed0 6fbd 7cf5 d3bc
00000190: 87ad 423d 36e6 3b3d a71d d63d 1450 c43d
000001a0: b6e2 b1bb 8c42 003d 4124 123d f2b3 f13d
000001b0: c6a9 be3d 530d 483d b1c7 c43d fe62 4ebd
000001c0: 02f1 fbbd 4a01 babc 8f33 d1bd 7713 0bbe
000001d0: 249f eabc d5b9 f5bd eb35 b33d a173 63bd
000001e0: 7494 e03d 03b8 7e3d 7ebb 91bd cb92 f4bd
000001f0: 91d1 de3c 921c ba3d 8d3f 8c3d 399c e13a
00000200: faf5 04bd 5a14 3b3d e5a6 05be 0f09 803c
00000210: e3c8 c4bb ff0e 80bc 0f9c ecbc 2bbd e7bd
00000220: d7aa 85bc aa0f b6bd fc9b 0e3e a923 833d
00000230: dbf5 cfbd 68d6 04be 674e 3e3d 8f9f 0bbe
00000240: 68d5 04bd 80cc 793c 8b99 aebd e5ba 723d
00000250: 9c9f 0c3c fe6c 95bd 3cad a6bc 1197 ad3c
00000260: eb7d 823c 960d 823d d082 fdbc df33 31bd
00000270: 50e1 bd3d ea7c b2bd a2d4 f7bd 2d10 64bd
00000280: fed2 c93d cf1f c6bd 4aa4 263d a4fa 07be
00000290: 5ef1 26bd 67ee a43d d0b1 bdbd e2da d83b
000002a0: 8232 5c3d f652 dd3c 863a 00be a89f cc3d
000002b0: ec42 ffbc 67da b33b f663 7cbd 3ea0 7abd
000002c0: 8402 763d 2547 08bc c7d0 c6bd 36f0 383d
000002d0: c3c1 c5bd 09a9 f93d e119 0abc 840e 5ebc
000002e0: d2e7 34bd e118 623d 99b9 d13d 5b2d 97bd
000002f0: 517d c9bd 8566 ec3d 7035 e23d dc15 b3bd
00000300: eaea 0f3e a83f 6abd 4993 da3d f7d3 683c
00000310: 2c71 b7bd 876d d9bd 54b7 0ebd f371 edbd
00000320: 3ab6 be3d c2c5 4e3d 5a90 cc3d d9fb 01bc
00000330: b5c2 69bd bc0b a53d a160 0fbe b418 2ebd
00000340: 42db 953d 1886 11bd f7fd 0cbd 6a4c ae3d
00000350: 6fcc 093d c037 8d3d c472 ba3d a479 b1bd
00000360: cb71 8e3d e743 8dbb 3802 69bd 1288 2d3d
00000370: 062e a7bd 1262 ba3d d410 813d c559 16bb
00000380: 5801 bebd fe86 2d3c 324d 93bd f1e8 233d
00000390: 527f bdbc 2e1e e23c c589 2e3d 98dc 053e
000003a0: a9e3 e6bd 7c16 9bbd d655 87bd ff54 de3d
000003b0: 959a 13bd c8fe 043e db28 14bd 1f65 333c
000003c0: bded e8bd e249 96bd 20b1 67bc 0d1d 7a3d
000003d0: 1713 85bd 395f d73c 1de1 e3bd aed8 a73d
000003e0: ae28 343d 13d9 db3d a012 00be 3dc1 16bd
000003f0: 9b17 0fbd cd0b 4abd 903e d3bb d217 40bb
0.26506677 -0.07261221 -0.08572977 0.13107675 0.25883526 -0.036273744 -0.023907334 -0.03793837
0.23008816 0.22341911 0.115606666 0.07022861 -0.086754724 0.1914378 0.20588148 -0.12958811
0.22971259 -0.10395331 -0.03230478 0.15525718 -0.07856496 0.10076396 -0.0038346522 0.08195195
-0.13638636 0.30230334 0.30884135 0.24683125 -0.030287476 0.123408034 0.23222259 0.032219063
0.13143744 -0.115063906 0.15165396 -0.08026344 0.22569734 0.21247172 0.07612684 -0.13569397
0.0056570754 0.23788975 -0.074327886 0.27308497 0.18842272 0.1392434 -0.08485238 0.12417924
-0.102897786 -0.028044619 0.29912353 0.19268781 0.2997293 -0.09357424 -0.07055518 -0.0088912025
-0.07256372 0.14177433 -0.05601282 0.23621505 -0.07188706 -0.11415568 0.092302985 0.22648992
-0.12088371 0.06791776 -0.13551652 -0.04211704 0.0046582944 0.1771115 -0.07522284 -0.021979958
0.08268195 0.115438975 0.109165534 0.30712116 0.30045855 0.2844332 -0.10060289 -0.010615142
0.23936029 -0.015006297 0.14232317 -0.04776379 -0.16109106 0.081032366 0.20035844 -0.10959419
-0.087991886 -0.01215588 0.09383371 0.23987682 -0.06523804 -0.035014413 0.2579391 -0.12874909
-0.12637338 0.059522625 -0.05854862 -0.025873892 0.04752877 0.045873843 0.104548745 0.09585586
-0.0054286374 0.031313464 0.035679106 0.118019 0.093097255 0.048840832 0.096084006 -0.050387375
-0.12301828 -0.022705693 -0.10214912 -0.13581644 -0.028640337 -0.11998335 0.087505184 -0.055530194
0.10965815 0.062187206 -0.071158394 -0.11942061 0.027199538 0.090874806 0.06848059 0.0017212696
-0.032461144 0.045673706 -0.13051946 0.01562932 -0.006005393 -0.01563215 -0.028883008 -0.11315378
-0.016316814 -0.088897064 0.13926691 0.06403286 -0.10154315 -0.12972414 0.04646149 -0.13635086
-0.032430083 0.0152465105 -0.0852538 0.059260268 0.008582976 -0.07296179 -0.020346276 0.021190198
0.015929183 0.063502476 -0.030946165 -0.04326236 0.092714906 -0.08715232 -0.12101103 -0.05567949
0.09854697 -0.09674036 0.040684022 -0.13279206 -0.04075753 0.08053284 -0.09262431 0.0066178897
0.053759106 0.027017098 -0.12522325 0.099913895 -0.03115984 0.005488682 -0.061618768 -0.061187975
0.060060993 -0.008317743 -0.0970779 0.045150958 -0.09656098 0.12190444 -0.008429022 -0.0135532655
-0.044166394 0.055199508 0.10240478 -0.07381698 -0.09838355 0.115429915 0.11045349 -0.08744404
0.14054456 -0.057189614 0.10672624 0.014210693 -0.08957133 -0.10616594 -0.034842804 -0.11594
0.09312101 0.050481565 0.099884704 -0.00793358 -0.057070453 0.08058879 -0.14001705 -0.042504027
0.07317211 -0.035528272 -0.034421887 0.085106686 0.03364223 0.06895399 0.09103921 -0.08665779
0.06955298 -0.004311073 -0.05688688 0.042366095 -0.08163075 0.09100737 0.06302038 -0.002294169
-0.092776 0.010591267 -0.07192458 0.040017072 -0.023132 0.027602281 0.042611856 0.13072431
-0.112738915 -0.07572648 -0.06608169 0.108560555 -0.036036093 0.12987816 -0.036171775 0.010949402
-0.1137347 -0.07338311 -0.014141351 0.06106286 -0.06497782 0.026290523 -0.11126921 0.08195625
0.043984108 0.10734763 -0.12507105 -0.03680538 -0.03493462 -0.04932766 -0.006446667 -0.0029311073

bias f4 [40]
00000000: 6c9b 863d a366 6a3e 34c2 c1bc c332 dabd
00000010: 3350 4d3d 59ac b63d 3edf b1bd 36fd 933d
00000020: 780e 3abd 61be ff3d 792b 9e39 d3eb ecbc
00000030: dfe9 a2bd c0db 91bd 2df9 c1bc 2be8 dabd
00000040: c928 b1bd e3df ca3d 588d f83d 4e76 b63d
00000050: 98dd 9ebd cb09 0c3d d0fd 0abe cb00 dbbd
00000060: 395c e1bc 8fc4 08be 74e7 f93d 7c85 12be
00000070: 7d8f e1bb 179c eebd aafd 2c3d 3ac3 ab3d
00000080: 37c3 a43d aea5 3fbd a3f7 d9bd 74a7 4abd
00000090: 9671 5c3d 6eb9 753d 7f23 473d c82f f8bc
0.06572613 0.22890715 -0.023652174 -0.10654213 0.050125312 0.089195915 -0.08685158 0.072260305
-0.045423955 0.12487484 0.00030168498 -0.028921044 -0.079547636 -0.07121992 -0.023678387 -0.10688814
-0.08650357 0.09905984 0.12136334 0.089092836 -0.077571094 0.034189027 -0.13573384 -0.106935106
-0.027509796 -0.13356231 0.12202349 -0.14308733 -0.00688356 -0.116508655 0.0422341 0.08386846
0.08045047 -0.046788864 -0.10642936 -0.049476102 0.05381926 0.059991293 0.048617836 -0.030296221
